abgabe_1.pt (torch, 24279 bytes, 5 tensors)

model.0.weight f4 [16, 6, 3, 3]
000000 7b 5c fb 3c 7d 39 85 bd 8c 44 2f be a3 44 51 3e
       0.030683747 -0.06505106 -0.17115992 0.20436339
000010 ad 5f d2 3d 4e 09 ad be c7 89 a6 3d 3d 85 ac bd
       0.10272155 -0.3379616 0.08131748 -0.08423851
000020 7d 29 3b 3d c8 d1 68 3e af f2 69 bc 98 7a b6 bd
       0.045693863 0.22736275 -0.014279052 -0.08910102
000030 bc f1 8d 3d f7 9a 3e be ab ab b5 3d fe cc bd 3d
       0.06930873 -0.18613802 0.08870634 0.09267615
000040 f0 eb 0d 3e c0 e0 a5 be 7d e8 27 3e ab 2a 41 3d
       0.13859534 -0.32398033 0.16397281 0.047159832
000050 21 d6 54 be 8e 38 b3 bd 2e 4b c1 3d 7a b5 2a be
       -0.20784809 -0.08751021 0.094381675 -0.1667079
000060 b8 84 5f 3e df 42 a0 3d 1d 57 3e be 0d a4 17 3d
       0.21827972 0.07825255 -0.18587919 0.037021685
000070 80 e1 58 be 9f 57 ac be fe 42 f1 3d 5e b3 cb bd
       -0.21179771 -0.336606 0.11780356 -0.09946321
000080 08 0d c1 be d2 47 05 3e 29 76 81 3e 6f c3 22 3e
       -0.37705255 0.13015679 0.25285462 0.15894864
000090 4d f8 8c 3d d5 c5 4b bb 5d 77 60 3d e3 fc 1c 3e
       0.06883297 -0.003109326 0.054801334 0.15330844
0000a0 c6 12 4f 3c e2 9d e8 bd b4 e0 27 bc a1 d2 30 3c
       0.012638753 -0.11358239 -0.0102464445 0.010792405
0000b0 72 8a ae bd 1e 81 11 bc 4e cd 9d bd 95 f7 17 3c
       -0.085225 -0.008880882 -0.077051744 0.009275337
0000c0 73 89 95 be 06 9f a4 bd f2 02 69 be 8c ca c7 bd
       -0.29206428 -0.08038144 -0.2275503 -0.097554296
0000d0 68 13 df bd 3e 34 bc 3d 9e f4 03 be c9 b6 ac be
       -0.10892373 0.09189652 -0.12886283 -0.33733204
0000e0 df 25 23 bd 31 10 97 bc b2 08 7a be 0e 50 52 ba
       -0.03983104 -0.018440338 -0.2441738 -0.00080227933
0000f0 b6 53 fc 3c 33 f5 3d be a3 1e 26 be c0 86 03 3e
       0.030801635 -0.18550567 -0.16222624 0.12844372
000100 73 7a 0a 3e 63 9d ce 3d f2 1b 7c bc d6 d0 d6 be
       0.13523273 0.10088613 -0.015387522 -0.41956204
000110 27 eb a6 3c d9 a8 3f bd 61 aa 02 bd c6 06 bc 3c
       0.020375801 -0.046791885 -0.031900767 0.022952449
000120 0c 6f d2 3d f9 a2 df 3c d2 36 90 3d 25 48 ed 3d
       0.10275087 0.027299391 0.07041706 0.11586026
000130 50 fe 2a bf 09 6d 74 3d 74 22 ba 3d 92 64 d3 3d
       -0.667943 0.059674297 0.09088603 0.10321917
000140 5e e2 21 bd 59 0f 33 3d eb 25 50 3e b7 fc cf 3c
       -0.03952252 0.04371581 0.20326965 0.025389059
000150 c5 1a 19 3d 66 53 24 be 87 ae 42 3d e6 86 1c 3c
       0.037379045 -0.16047439 0.047529723 0.009553647
000160 2f 0d 23 bd 24 51 2e be c7 c5 34 b6 d5 55 9b 3d
       -0.039807495 -0.1702314 -2.6937212e-06 0.075847305
000170 d0 5d 4a bd 61 4e 70 bd ba dd f2 be 6a b7 b3 bd
       -0.049405873 -0.058668498 -0.4743479 -0.08775218
000180 bd a4 09 3c 7b 44 51 bd b8 56 d4 3c e8 90 ba 3d
       0.008401093 -0.0510907 0.025920257 0.0910967
000190 63 bd 79 3e 48 96 a0 3d af dd 5e 3d a6 2b 4b bf
       0.24388652 0.07841164 0.054410633 -0.7936348
0001a0 ee 77 87 3d c3 7a 4d bd 69 38 6a 3e 28 84 4e bb
       0.06614672 -0.050165903 0.22873081 -0.0031511877
0001b0 b4 67 46 bb 70 1e 97 bc c5 a4 95 bd fb 14 cb 3d
       -0.0030274214 -0.01844713 -0.07306818 0.09916111
0001c0 ee d0 54 3e 6b 07 15 3e ba 76 2c 3e 7d 71 0a bc
       0.20782825 0.14553611 0.16842166 -0.008449909
0001d0 e5 11 83 bd 62 65 79 bd 9a 0c 81 bd f4 3a 44 3d
       -0.063998975 -0.0608877 -0.06301232 0.047907785
0001e0 15 09 4e 3d b3 11 ce bd 39 f8 b3 bd 7c 7f 3b bc
       0.05030163 -0.100619696 -0.08787579 -0.011443969
0001f0 87 8a 5d 3e cf f0 dd bd b2 a2 63 3e 0e 4c b2 bd
       0.21634875 -0.10836946 0.22230032 -0.087059125
000200 0c c1 22 bd e7 58 7a 3e b5 32 16 bd 12 e1 c1 bc
       -0.039734885 0.24447976 -0.03666945 -0.023666892
000210 01 8b 86 3e bd be a9 bc 69 6b 30 bd e0 18 3f 3e
       0.26277927 -0.020720834 -0.043071184 0.18661833
000220 e5 fd 7a be 9a c4 2a be 52 04 77 3e 7b d3 e2 bd
       -0.24510916 -0.1667656 0.24122742 -0.11075493
000230 bd 45 7d 3d 9a f7 f9 3d f0 c7 c2 bd ff 23 84 3d
       0.061834086 0.122054294 -0.09510791 0.06452178
000240 ef c5 08 3e e7 a0 54 be 7d 46 4b 3d b8 5a c0 bc
       0.13356756 -0.20764504 0.04962777 -0.023480758
000250 4e b8 53 be 91 fd 02 3e 15 c5 9b 3d ef 0f 5d bb
       -0.20675775 0.1279204 0.0760595 -0.003373142
000260 70 b6 65 bd eb e2 e7 bc 3b d8 9e bd d3 0a e8 bd
       -0.05608219 -0.028306445 -0.077560864 -0.113301896
000270 2c 05 8e bd 4b 55 df bd 73 e3 21 3e 39 9d ea 3d
       -0.0693458 -0.1090494 0.15809421 0.11455769
000280 02 e3 9f be 46 49 6a 3e 11 b1 1e be be 65 b5 bd
       -0.3122788 0.22879514 -0.15497233 -0.088572964
000290 32 58 39 be 05 a3 9d 3d 96 5c 4e 3c b3 d2 86 bc
       -0.1810005 0.07697109 0.012595316 -0.016457891
0002a0 af ee 02 3e db b0 32 bc 37 80 df 3c c5 8f 26 be
       0.12786363 -0.010906423 0.027282817 -0.16265781
0002b0 44 9a c0 bc 4c 9a 55 3d c7 f5 46 3d 8f b1 84 be
       -0.02351106 0.052149102 0.048574235 -0.25916716
0002c0 22 8b 06 be e8 02 cf 3d ed 99 bb 3d e7 12 be ba
       -0.13139012 0.10107976 0.091602184 -0.0014501483
0002d0 89 20 1a bd 8c 92 f0 bb 0c a6 c6 3e 31 4e 0d 3e
       -0.037628684 -0.0073416885 0.3879856 0.13799359
0002e0 05 50 cc bd 0b 86 c1 3e ac 96 2f bd 4f 9a 94 3c
       -0.099762 0.3779758 -0.0428683 0.018139986
0002f0 6b 2e 60 3e af a0 0a be 92 38 85 be f3 04 ba bd
       0.21892707 -0.13537858 -0.26019722 -0.09082975
000300 fe 70 20 bd 48 a1 4a be 29 59 12 3d ce 7c f2 3d
       -0.039170258 -0.19788086 0.03572956 0.11840211
000310 0f 4f 08 be e7 78 85 3e bd 7f c7 bc 78 6d c6 3d
       -0.13311408 0.26068804 -0.024352903 0.09688848
000320 57 e0 4d 3e a3 5e 49 3d a7 99 2b 3c fd 89 51 3e
       0.2010511 0.04916252 0.010473645 0.20462795
000330 82 33 1f be c9 c6 13 be c1 25 b2 3b 64 64 cf bd
       -0.15546992 -0.144313 0.0054366295 -0.1012657
000340 1d dd 4c be c0 f6 1e 3e e8 8a 49 bd 37 c3 9a 3d
       -0.20006223 0.15523815 -0.049204737 0.075567655
000350 1d bc ad 3d 9e 08 40 be bf 2c 93 be 91 23 95 3d
       0.084831454 -0.18753287 -0.28745076 0.072821744
000360 4a ae cd bc 29 18 1d 3d c0 88 dd bd fe 20 59 be
       -0.025107522 0.03835312 -0.108170986 -0.21203992
000370 73 d2 64 be e2 f6 df 3c f1 7b 0f be 8f 2b 72 3e
       -0.22345905 0.027339403 -0.14012124 0.23649429
000380 d1 b3 88 3e 08 8d 96 bb ca 87 a1 3d 9b 4f 71 3d
       0.2669969 -0.004594449 0.07887228 0.05891381
000390 ff bb fe 3d 3e 68 2d 3e 7e 08 aa 3d c4 4b c9 3d
       0.12438201 0.16934296 0.08302401 0.09828904
0003a0 7a 62 85 be a7 1c d9 be 2d ee 35 bd 24 a8 d5 3d
       -0.26051694 -0.42404673 -0.044416595 0.10432461
0003b0 33 a9 3f 3d 81 2c 64 bd 04 d9 fa 3d f0 b0 b1 bd
       0.04679222 -0.055706505 0.12248424 -0.08676326
0003c0 80 3e c3 3a 4c ca 4b 3c 17 e5 81 be 68 96 2d be
       0.0014895946 0.012438368 -0.25370094 -0.16951907
0003d0 f9 6b bc 3c 9c 11 af bd 63 77 7d be b4 12 ae bc
       0.023000704 -0.085482806 -0.24752574 -0.021249153
0003e0 28 0f fd 3d 24 87 d9 bd d3 61 e6 ba c0 ec 70 3e
       0.123564065 -0.10621479 -0.0017576761 0.23527813
0003f0 0e 59 10 3e 30 e7 76 bc 7a 40 e3 3d e0 0d 40 3e
       0.14096472 -0.015069768 0.11096282 0.18755293

model.0.bias f4 [16]
000000 84 ae 18 3d 66 f7 49 bd e4 4c 48 3e 84 83 66 bd
       0.037275806 -0.049308203 0.19560581 -0.056277767
000010 59 f9 70 be 1b 1d d4 bd bf 19 4c be 6d 45 22 3c
       -0.23532619 -0.10357114 -0.19931696 0.009904248
000020 51 b6 5f be a3 2a 8e 3d a8 dd 98 bc ff 41 5c be
       -0.21846892 0.06941726 -0.018660381 -0.2150955
000030 9f c0 4e be 0e 97 00 3e dd fe 90 3b ad 9b 35 be
       -0.20190667 0.12557623 0.0044249133 -0.17735167

model.3.weight f4 [32, 16, 3, 3]
000000 ef ab 00 3e 7d e5 57 3d 61 a0 eb 3d 6c 27 c5 3d
       0.12565587 0.05270909 0.11505199 0.0962666
000010 c8 94 3d 3c 6a 25 51 3d 81 bf 16 3e 03 e6 b8 3d
       0.011571117 0.05106107 0.1472149 0.09028246
000020 a9 58 c2 3d 42 8f cb bc d6 0a 8c bd 7c 1d f8 3c
       0.09489567 -0.024848584 -0.06838004 0.030287497
000030 e1 95 28 be 43 90 53 be 0a 08 0e be a8 79 eb bd
       -0.16463424 -0.206605 -0.13870254 -0.114978135
000040 75 ee 7f be 3c 9e 41 be 89 c7 1c 3d 6c 79 00 3e
       -0.24993308 -0.18908018 0.03827623 0.12546319
000050 df 4a fd 3c a5 e4 11 3e 67 ff 1b 3e 66 a6 1a 3e
       0.03091949 0.14247377 0.15234147 0.15102538
000060 e1 3e b2 bb 14 8c ee 3d d7 aa 64 3d a1 dd b8 3d
       -0.0054396247 0.116478115 0.055826988 0.09026647
000070 2f da eb 3d c1 99 b6 3d 6e 5b c6 3d 5f 8d d9 3d
       0.115162246 0.08916045 0.096854076 0.106226675
000080 59 04 73 3d d8 69 2b 3e a3 0b f2 3d 1f 55 fe 3d
       0.059330318 0.16739595 0.11818626 0.12418579
000090 98 86 62 3d ac 12 68 3d 06 6c e6 3d 8d e9 43 3d
       0.05530414 0.056658432 0.112510726 0.047830153
0000a0 27 3f e8 3d 87 87 24 3e 20 c1 30 3e 92 ac 26 3e
       0.1134017 0.16067325 0.17261171 0.16276768
0000b0 07 ce 56 3e 49 f8 2a 3e ef a7 16 3e 79 a7 ef 3c
       0.2097703 0.16696276 0.14712499 0.029254662
0000c0 58 53 97 3d 8a a1 2f 3e 30 32 2b 3d 5a b0 08 3e
       0.073889434 0.17151466 0.04179591 0.13348523
0000d0 d8 4d 05 3e 77 92 03 bd b2 49 0e 3e c6 72 f7 3c
       0.13017976 -0.0321221 0.138953 0.030206095
0000e0 d1 66 88 3d d7 9c 4f 3e f3 3e 2b 3d 3d 70 73 3d
       0.06660236 0.20274673 0.04180808 0.05943321
0000f0 75 1e b0 3d d4 f1 28 3e d3 1a 44 3e 08 cd 5b bd
       0.08599559 0.164985 0.19150858 -0.05366233
000100 35 9e 2b be 42 b7 a1 bd ed c3 01 3a 01 77 97 bb
       -0.1675957 -0.07896282 0.00049501547 -0.0046223407
000110 ea 07 30 bd a3 fb 3d 3d 07 28 0f bd 2f 60 89 ba
       -0.042976297 0.046382558 -0.034950282 -0.0010480935
000120 8b ab d3 bc 3d 8d 0f bd 43 ab 82 3c 47 dd 40 3e
       -0.025838634 -0.035046805 0.015950805 0.1883441
000130 23 b2 e3 3d d2 7e ef 3d 46 ca 51 3e 72 51 df 3d
       0.11117961 0.11694111 0.20487317 0.10904206
000140 88 6e b6 3d 5b 1e 3b 3d 04 9c 3b 3c 99 5a 2a 3d
       0.08907801 0.045683246 0.011450771 0.041590307
000150 7a 1f 00 3e be 80 fe 3d 35 7c 05 3e 31 19 e7 3d
       0.12512007 0.124268994 0.13035662 0.11284102
000160 9d 67 ae 3d ad 72 c6 3a ad b3 85 bd ed 47 16 bd
       0.085158564 0.0015140377 -0.06528411 -0.036689688
000170 31 06 f8 bc c1 4a a8 bd 01 a7 cc bd 5d e8 b1 bd
       -0.03027639 -0.08217383 -0.09992791 -0.08686898
000180 fe a7 ae bd 5a c8 21 be a6 3f a6 bd 49 ae 3e 3e
       -0.08528136 -0.15799084 -0.08117609 0.18621172
000190 98 bb 30 3e 3c 33 75 3e 8f 0b f5 3d 6a f7 fe 3d
       0.17259061 0.23945326 0.11965095 0.12449534
0001a0 e9 8e 6a 3e cd 8e 0d 3d 98 bd a7 3d 8b 34 08 3e
       0.22906078 0.034560014 0.08190459 0.13301294
0001b0 16 60 ad 3c 88 a8 94 bd 44 ef 0b be 07 40 4f be
       0.021163981 -0.07258707 -0.13665491 -0.20239268
0001c0 a4 fe 3e be 99 f2 34 be 96 b1 8f be d2 59 43 be
       -0.18651825 -0.17670669 -0.28065175 -0.19077232
0001d0 f0 c2 40 be 99 d3 0e bc 69 b3 87 3d 80 6f 98 bb
       -0.18824363 -0.008717441 0.06626017 -0.0046519637
0001e0 db bd 3b 3e dc 54 a5 3c 2b a3 09 3d 2e fe 34 3d
       0.18334143 0.020182066 0.033602875 0.044187717
0001f0 e0 01 44 3d 0b 57 28 3e 29 f0 e7 bd b2 ca 11 be
       0.04785335 0.16439454 -0.11325104 -0.14237478
000200 f7 9b 18 be 07 38 b4 bc be 1f e7 bd fb 1f d1 3c
       -0.14903246 -0.021999372 -0.11285351 0.025527945
000210 53 dc 00 3c 11 7a c8 bd bc 60 88 3d 32 f5 ee 3d
       0.007865029 -0.09788907 0.066590756 0.11667861
000220 be f6 f3 3d d0 7d 4b 3e aa 93 b2 3d aa e9 7c 3d
       0.11912297 0.19872212 0.08719571 0.061746277
000230 c4 55 43 3b d9 9e 52 3d f0 1d 28 3e 6b 35 16 3e
       0.002980576 0.05142102 0.1641767 0.14668815
000240 d4 49 08 3e e2 89 e5 3d 3d 36 41 3d 36 6a 07 3e
       0.13309413 0.1120794 0.047170866 0.1322411
000250 23 0c 67 3d 03 67 37 3d f5 2d 19 3e bc 11 7e 3d
       0.05640806 0.044775974 0.14958937 0.06202863
000260 27 4c 64 3d 40 76 84 bd ae eb 19 be 09 34 fa bd
       0.055736687 -0.06467867 -0.15031311 -0.12216956
000270 43 cc 08 be aa 70 15 be 7a 1e f9 bd d5 44 58 be
       -0.1335917 -0.14593759 -0.12164016 -0.21120007
000280 9c e1 51 be b0 ca 4d be 93 1e 7d bc 14 13 d5 3d
       -0.2049622 -0.2009685 -0.015449184 0.104040295
000290 2f c9 11 3e c5 91 0c 3e 85 74 13 3e 6b b4 07 3e
       0.14236902 0.13727482 0.14399917 0.13252418
0002a0 25 66 b5 bc f8 eb 83 3c ba 00 6e 3d 8d 7d 3a 3e
       -0.022143433 0.01610373 0.05810616 0.18211956
0002b0 d1 cf 20 3d c0 c5 58 3d e5 6d c6 3d d2 d5 bf 3d
       0.03926069 0.052922964 0.096889295 0.09366955
0002c0 18 3a 39 3d b9 6c 02 3e ca d3 0b 3e 6d b6 84 3d
       0.04522142 0.12736787 0.1365501 0.064801075
0002d0 f1 9e 13 bd 94 6e c6 3c a1 98 cd 3d 4a 3f 89 3d
       -0.03604025 0.02422265 0.10038877 0.067015246
0002e0 08 3d a4 3d e5 96 32 3e 8b 84 2e 3e 7c 60 fd 3d
       0.08019453 0.17440374 0.17042749 0.123719186
0002f0 2e a2 78 3e 03 e6 2b 3e b0 1e 93 3d a5 01 8d 3c
       0.24280617 0.16786961 0.071835876 0.017212698
000300 49 77 20 3e da 6e e6 3d 84 81 ef 3d de 75 ff 3d
       0.15670504 0.11251612 0.11694625 0.12473653
000310 cd 21 b4 3c 2f 76 dc 3d 12 b1 01 3e 00 fa f7 3d
       0.021988774 0.10764729 0.12665203 0.121082306
000320 cb 91 1a 3e 1c 40 62 3e 8a 4d 21 3e b9 84 97 3d
       0.15094678 0.22094768 0.15752235 0.07398362
000330 8f f1 ca 3d f1 45 0c 3e e5 1f e2 3d ef 26 d9 bc
       0.09909355 0.13698556 0.1104124 -0.026507823
000340 28 fe a9 bd 9f 4d 93 bc 05 cf 7a bc d1 68 18 bd
       -0.083004296 -0.017981349 -0.015308146 -0.037209336
000350 3a 02 8a 3d 19 5e bd 3c 89 07 04 be 0a 2e c0 bd
       0.06738706 0.023116158 -0.128935 -0.09383781
000360 c3 2d 67 3c 8c 23 bc 3d 3b f4 69 3c e4 da 1f 3e
       0.014110032 0.091864675 0.0142794205 0.15610844
000370 6e 3e 34 3e 7e 34 57 3e 61 ee f9 3d 93 b3 fb 3d
       0.1760194 0.21016118 0.1220367 0.122901104
000380 03 11 08 3e 71 94 9f 3d ec 35 80 3c b8 71 16 3e
       0.1328774 0.07791985 0.015650712 0.14691818
000390 1b e1 07 3d 18 c4 d2 3d 37 a7 a9 3d a7 ae 0b 3d
       0.03317366 0.10291308 0.08283847 0.03410211
0003a0 78 7a ca 3d 0c e4 20 3d 29 d1 51 3d 9a ff a9 bd
       0.0988664 0.039279982 0.05122486 -0.08300705
0003b0 9a 62 53 bd 4c 48 55 3a 41 8d 02 be 7b 24 31 3d
       -0.051607706 0.0008136078 -0.12749197 0.04324768
0003c0 3f a5 05 be c7 59 e0 bd 2a c2 3d be 3e 45 27 3e
       -0.13051318 -0.10954624 -0.18531099 0.16335008
0003d0 b9 59 d5 3d c5 3b 49 3e 95 42 13 3e 6a d5 1b 3e
       0.10417504 0.19651707 0.14380868 0.1521813
0003e0 1a ea 69 3e ca 14 6c 3a dc bf 07 3e d2 b4 29 3e
       0.22843209 0.00090057834 0.13256782 0.16572884
0003f0 2f 5a f2 3c ac c3 2b bc ee 0b 75 bc 96 0e 5b be
       0.029584019 -0.0104836635 -0.014956458 -0.21392283

model.3.bias f4 [32]
000000 02 26 96 3d b1 45 26 3d f4 6d 86 3e a2 ef 83 bc
       0.07331468 0.040593807 0.26255763 -0.016105477
000010 8e 14 e7 ba 01 b9 91 3d 89 1b 9d 3c 82 92 7c 3d
       -0.0017630027 0.07115365 0.019178169 0.06166316
000020 eb 58 22 3e b1 06 aa bc 8d 15 5b 3d 89 87 c0 3c
       0.15854232 -0.020755144 0.05348735 0.023502128
000030 3f 3f 65 bd a8 2c dd 3a 50 47 a4 3d 17 ec 4d 3d
       -0.05596852 0.001687427 0.08021414 0.05027398
000040 82 3b aa 3b f3 58 5f bd f9 71 c0 3d e8 7f 02 3e
       0.005195082 -0.054528188 0.093967386 0.12744105
000050 62 a7 34 3d f4 06 b1 3c d8 7e e9 3d 77 ee b6 bd
       0.04410494 0.02160976 0.11401147 -0.08932202
000060 1d eb a1 3c 06 8d d1 3d e4 d9 1d bd 3b 32 a6 3d
       0.019765431 0.10231976 -0.038537875 0.081150495
000070 90 24 f2 3c c5 57 1a 3d 30 d4 b0 3d 7f 56 2d 3d
       0.02955845 0.03768136 0.086342216 0.042318817

model.7.weight f4 [1, 32]
000000 40 60 40 be d1 dd a1 be a8 54 ad 3f ec 6d 73 3e
       -0.18786716 -0.31614545 1.354146 0.237724
000010 4a 2a 61 be 5c f3 a8 be 99 b4 94 be 65 f8 b0 be
       -0.21988788 -0.32998168 -0.29044035 -0.3456451
000020 2a 04 6b be e1 39 8b be bd 11 88 be 02 31 2b be
       -0.22950807 -0.27192596 -0.26576033 -0.16717914
000030 f7 ab 6a 3e e8 52 9a 3e 87 db a4 3e 2b 30 37 be
       0.22917162 0.30141377 0.32198736 -0.17889468
000040 91 fd 6c be 43 f4 94 3e 43 a5 a3 be 72 45 a3 be
       -0.23143603 0.29092607 -0.31962022 -0.3188892
000050 a7 0f 64 3e 6f f4 9c be c0 9b ab be 0e 37 6f 3e
       0.22271596 -0.30655238 -0.33517265 0.23360845
000060 a6 22 8d 3e a5 fa 3a be db ca 5c 3e ee 42 73 be
       0.27565497 -0.18259676 0.21561758 -0.23756
000070 64 19 ac 3e ab 2f b1 be 73 3b 3e be fb 73 c9 be
       0.33613122 -0.3460668 -0.18577366 -0.393463
