abgabe_2.pt (torch, 24279 bytes, 5 tensors)

model.0.weight f4 [16, 6, 3, 3]
000000 41 9a 89 be d0 a5 0a bc 9d c6 be bb 17 d8 8d 3e
       -0.268755 -0.008462384 -0.0058220164 0.27703926
000010 d4 e0 5e 3e cb 2a 90 bd 15 fb 54 be c1 f1 0e be
       0.21765453 -0.07039412 -0.20798905 -0.1395941
000020 a1 fc 72 be 08 bf b5 bd 09 bb e6 3d 8a a1 5f be
       -0.23729183 -0.08874327 0.11266143 -0.21838966
000030 43 5d 03 bc 3e f0 c0 be a5 92 a2 3e 6c e6 56 3d
       -0.008017841 -0.3768329 0.31752506 0.05246584
000040 a3 4c cd 3d 77 57 df be ea 16 ac 3a 44 24 19 3e
       0.10024383 -0.43621418 0.0013129388 0.1495524
000050 8f ec b0 3d 19 f4 81 3e 12 38 1c 3e ab 9a 25 bd
       0.0863887 0.25381544 0.15255764 -0.040430706
000060 47 59 87 3e 87 d1 ee 3d fb 6d ad bd 96 8c 26 be
       0.264353 0.11661058 -0.08468243 -0.16264567
000070 28 49 89 bc c8 28 c7 3c b9 83 91 3e 1b 33 10 3e
       -0.016758516 0.024311438 0.2842081 0.14081995
000080 3c ce 6a be c2 d0 95 3c ef 06 2f be 98 5d c1 bc
       -0.22930235 0.01828802 -0.17092489 -0.0236042
000090 38 88 d6 3d 53 89 20 3e 28 6e 39 be 2b 77 97 bd
       0.104752004 0.15677385 -0.18108428 -0.07395776
0000a0 64 54 b5 be 35 50 5b 3e 5e 5b 1e 3e 4f 90 0b 3e
       -0.35415947 0.21417315 0.15464541 0.13629268
0000b0 75 03 23 be b3 c1 74 3e 19 1d a9 3e f9 25 39 3d
       -0.15919288 0.23902015 0.33030012 0.04520223
0000c0 78 6f 17 bd a0 48 09 be 38 e0 85 3d c6 b6 49 3e
       -0.03697154 -0.1340661 0.06536907 0.19698629
0000d0 a5 8f 19 3e fd 32 84 bd 5b 57 a7 bd 16 7d 63 be
       0.14996202 -0.06455038 -0.081709586 -0.22215685
0000e0 0c 0e b9 bd 6b dc 99 be d3 76 ce 3e 55 f3 6b 3b
       -0.09035882 -0.30050978 0.4032503 0.0036003191
0000f0 36 27 aa bd fa 82 ca bd d5 20 f0 bd 5a 27 1c 3b
       -0.0830826 -0.09888263 -0.11725012 0.0023827166
000100 f3 74 59 3d d5 91 05 3e 03 98 13 be b3 3d 60 3e
       0.053090047 0.13043912 -0.14413457 0.21898536
000110 e2 25 fc 3d 66 af 7d 3e ec 2d b5 3e bc 4d b1 3d
       0.12311913 0.2477394 0.35386598 0.08657405
000120 29 7c 65 bc 47 3b ce be c4 cc 03 be 9b 73 e2 be
       -0.014006653 -0.402796 -0.1287108 -0.44228825
000130 ab d2 2b 3e 87 5c fc bd 41 27 ba bd 96 1c 5d be
       0.16779582 -0.12322336 -0.09089518 -0.21592936
000140 1e db d1 be a5 8b c4 bd a0 78 77 be b8 10 2b be
       -0.40987486 -0.095969476 -0.24167109 -0.16705596
000150 d7 15 91 be 22 9a bc 3c 00 cf 70 be 27 47 83 be
       -0.28336975 0.023022715 -0.23516464 -0.25640222
000160 60 dd 6e be aa 34 a9 be ae f7 5a 3e 6e c2 4c 3e
       -0.23326635 -0.33047992 0.21383545 0.19996044
000170 b1 ab 16 3e f6 c0 9d b9 62 53 da 3e da e0 b6 3e
       0.14713933 -0.0003008914 0.4264174 0.35718423
000180 96 1a db 3e 6b 8d 8d 3e 60 2d 57 3e 01 5f 09 bd
       0.4279372 0.27646956 0.21013403 -0.03353787
000190 a3 78 c1 bd 8d c3 e3 bd 83 f8 dc bd c4 9a de 3e
       -0.09446838 -0.11121283 -0.10789587 0.43477452
0001a0 ba 64 ed 3d e1 36 e7 3e 38 e2 21 3e cf af cf 3d
       0.11591478 0.45159057 0.15808952 0.10140955
0001b0 ce af 51 3e 2e fa 1a 3e a8 87 2b 3e 4b 21 39 3a
       0.2047722 0.15134498 0.16750968 0.0007062151
0001c0 8b fd 76 3e f3 02 29 3e 6b 33 9d bb 7b 72 8d 3d
       0.24120156 0.16505031 -0.0047973893 0.06906601
0001d0 f9 d9 4c be 72 07 39 bd 47 e0 27 be 0b 4f 37 bf
       -0.20005025 -0.045173116 -0.16394149 -0.71604985
0001e0 09 63 15 bf 7b 30 e8 3d 3a 51 a5 3d 83 a1 9c 3b
       -0.5835424 0.11337372 0.08072133 0.004779996
0001f0 23 f2 94 3a 72 30 45 bd c5 53 25 3e 42 f3 0d 3d
       0.0011363666 -0.048141904 0.16145237 0.034655817
000200 39 15 80 3e 10 ac 17 3d 8f 5a 26 3e c3 3d cf 3e
       0.25016192 0.037029326 0.16245483 0.40476808
000210 13 a3 2a 3e 9d c6 89 3e f8 00 ef 3d 6e f2 6d bd
       0.1666377 0.26909342 0.11670107 -0.058092527
000220 cb 14 eb 3b 11 64 00 3e 83 2e 87 bd 92 58 2c 3e
       0.0071741096 0.12538172 -0.06600668 0.16830662
000230 a5 a6 e3 3d 7d 0d 64 3d e7 4f 49 3e 9c 2a a4 3d
       0.11115769 0.055676926 0.19659387 0.080159396
000240 d8 9b e2 bc bc e6 d9 bd c4 a8 12 bf f4 0c 96 be
       -0.027662203 -0.10639712 -0.57288766 -0.29306757
000250 8b 50 a3 3d da 06 14 bc 7f 02 ec 3d 57 e0 e2 3c
       0.07974347 -0.009034837 0.115239136 0.027694864
000260 c3 21 21 3d 6f 11 07 3d 26 ca 82 3c 77 6a 18 be
       0.03933884 0.03297561 0.015965533 -0.14884363
000270 9d 41 07 be 23 64 9a bc 97 00 6d 3d 5b a0 fa 3c
       -0.13208623 -0.018846577 0.05786189 0.030594042
000280 9c 54 65 3e 4c 35 4b bd 30 5c 0c be 50 c4 9c 3e
       0.22395557 -0.049611375 -0.13707042 0.30618525
000290 95 41 fd 3e 34 bf 3b 3e d3 2d b5 3e 7d 6b 85 3e
       0.49464098 0.18334657 0.35386524 0.2605857
0002a0 fa 5f 0d be aa 4b a7 3d 75 73 3c 3e 63 c4 17 bf
       -0.13806143 0.08168729 0.18403418 -0.5928404
0002b0 a6 e6 3f 3c 7f de f4 bd 76 a3 1e 3e 45 ee c0 3e
       0.011712706 -0.119565 0.15492043 0.37681785
0002c0 7d 2e 63 3e e9 b6 18 3e d0 c1 94 3e 9b da 98 3d
       0.22185703 0.14913525 0.29054117 0.07463571
0002d0 bc bc 7f be d8 95 21 3c 5b e1 64 3e 0c 0a bf 3c
       -0.2497434 0.009862386 0.22351591 0.02332022
0002e0 5a 41 dc 3d 49 dd 77 3e 3c 62 42 3c 5c 14 93 3e
       0.10754652 0.24205507 0.011864241 0.2872647
0002f0 f4 95 2c bd 56 0c 5d 3e 9a c2 9c 3e 41 32 fe 3e
       -0.042135194 0.21586737 0.3061722 0.49647716
000300 e6 6d 3c 3e 3b da 00 3f 49 de 87 3e bb 74 4b 3e
       0.18401298 0.50332993 0.26536778 0.19868748
000310 75 f9 82 3e 7a d8 87 3e bb 72 50 be 25 65 87 be
       0.25580946 0.26532346 -0.20356266 -0.26444355
000320 21 d4 81 be d7 1a d6 3d a9 df 8d bc f6 4d 12 be
       -0.25357154 0.10454338 -0.017318564 -0.14287552
000330 9a b9 e9 bc 2f 68 e6 3d 9f bc 6b be 88 45 a3 bc
       -0.028530885 0.1125034 -0.23021172 -0.019930616
000340 71 e5 a8 bb e8 66 1e be a8 d5 4a bd 83 9f 24 be
       -0.0051543047 -0.15468943 -0.049520165 -0.16076474
000350 ac b8 ce bb ea 78 84 bc 0e 6b e1 3c 41 5a aa bd
       -0.0063086357 -0.016170938 0.027516868 -0.08317996
000360 e1 b7 57 3b e2 f8 27 3e 2c ea 97 3e bf 33 1c 3d
       0.0032915997 0.16403535 0.29670846 0.038135286
000370 ab a6 0a 3e aa 9d bd 3b 1c 3e 7c 3d b2 2d 1c 3d
       0.13540141 0.0057866173 0.06158267 0.038129516
000380 cd 21 5d be f7 fe 5a b9 de 45 ae 3e 2a 28 9c 3e
       -0.21594925 -0.00020885082 0.3403768 0.30499393
000390 cb d0 47 3e c2 bd 3f be b2 85 ea bd 9c dc a2 be
       0.19513242 -0.1872473 -0.114512816 -0.31808937
0003a0 7f 95 46 be 12 74 ff be 22 e5 19 3e 85 8e f7 3d
       -0.19392966 -0.49893242 0.15028813 0.1208773
0003b0 07 fa 88 3e 52 31 1c 3e 7b 46 81 3d a2 ff 0b be
       0.26753256 0.15253189 0.06312271 -0.13671735
0003c0 77 9a 3c 3e 71 5e 21 be c4 0f 24 bf 05 fb 2d 3e
       0.18418299 -0.15758683 -0.64086556 0.16990288
0003d0 53 9e 8e 3d fe 37 cb 3e 6e c5 18 3e af c9 ec 3d
       0.06963792 0.39691156 0.14919063 0.115619056
0003e0 d5 86 12 be b0 3a 43 3d ab 9f df bd 1e bd 14 bf
       -0.14309247 0.04766339 -0.10919126 -0.5810107
0003f0 4f 5f 1c 3d 93 c4 ac 3d 2d 87 7b 3d c1 e0 c2 bc
       0.03817683 0.08435931 0.06140821 -0.023788812

model.0.bias f4 [16]
000000 cf ec dd bd e8 1f 18 3a 59 e2 85 be 19 0f af be
       -0.10836183 0.0005803094 -0.26149252 -0.34191206
000010 47 ee 88 be 34 f6 ce bd a2 fc ae be 17 c9 ba 3d
       -0.2674429 -0.10105553 -0.3417712 0.09120386
000020 25 0a e6 bd ca b0 28 be 98 34 81 3d a6 bd 84 3d
       -0.11232404 -0.1647369 0.063088596 0.06481485
000030 d1 2a a5 3e ba 20 44 be 79 e0 0a bf 1d e3 18 be
       0.3225923 -0.19153109 -0.5424877 -0.14930387

model.3.weight f4 [32, 16, 3, 3]
000000 82 7d 21 3e 42 9d 9a bb 31 b8 77 be b6 52 33 3e
       0.15770534 -0.0047184536 -0.24191357 0.1751202
000010 fc 41 54 3c a0 42 61 be e1 72 36 3e b8 10 9b 3c
       0.012955185 -0.21998072 0.1781726 0.01892887
000020 68 f5 9c bb 19 96 13 3e f8 49 d0 bc 0e 03 48 3e
       -0.004789997 0.14412726 -0.025425896 0.19532415
000030 9d 08 08 be 81 1f 21 be 68 0b 52 3d 96 fa 98 bd
       -0.13284536 -0.15734674 0.05128041 -0.074696705
000040 15 e4 d6 bd 23 2b dd 3d da cc f5 3c 2b 65 79 bd
       -0.10492722 0.10799243 0.030004907 -0.060887497
000050 23 4e 86 be 9b 11 67 3d d2 1a 2b be a8 03 59 be
       -0.2623149 0.056413274 -0.1670945 -0.21192801
000060 45 8b 87 bd 3f 25 58 be 3b 6f 5e be 80 05 83 3d
       -0.066183604 -0.21107958 -0.21722119 0.063975334
000070 37 25 25 be 9d a4 2b bf 7b f3 b6 bb b4 34 70 be
       -0.16127478 -0.67048055 -0.0055832244 -0.23457605
000080 5e 0e 0b bf 25 05 cb 3b 9d d8 df bd cb 05 d9 be
       -0.543188 0.0061956816 -0.109299876 -0.42387232
000090 ba 38 24 3e 4f 80 10 3d ff 2c 0e 3e cc 9c da bb
       0.16037264 0.035278615 0.13884352 -0.0066715237
0000a0 67 ab b1 bd 6c 86 26 3e 54 04 85 3c 3c 10 cb bd
       -0.086752705 0.16262215 0.016237415 -0.09915206
0000b0 81 46 87 bc af 34 e3 3d 3d 18 de bd 57 29 32 bc
       -0.016513111 0.11094033 -0.10844467 -0.010874114
0000c0 00 e9 38 be d4 0a 7e be 74 e1 bd bd 7a a8 b1 bd
       -0.18057632 -0.24808818 -0.092715174 -0.086747125
0000d0 22 29 ea bd c7 e6 95 bd e1 ac ac 3d 49 01 25 be
       -0.11433627 -0.07319408 0.084314115 -0.16113771
0000e0 f2 a1 ed be 65 38 72 3d 84 de a8 bd 08 f2 14 be
       -0.46412617 0.059135813 -0.082455665 -0.14545453
0000f0 76 b2 80 3c f0 85 42 bd 12 93 6a be 10 f2 f1 3c
       0.015710097 -0.047491014 -0.22907665 0.02953437
000100 46 77 2a 3e 49 8a 3b 3e 60 1e d3 3d 7f 82 49 3e
       0.16647062 0.1831447 0.10308528 0.19678687
000110 f5 31 1d 3e 52 07 64 3d dd 86 01 3e fc 83 ce 3d
       0.15351088 0.055671044 0.12649103 0.10083768
000120 9e 0f e7 3d b2 30 4e be e7 26 11 bf 69 d4 25 3e
       0.112822756 -0.20135763 -0.56699985 0.1619431
000130 ef 60 e7 bd ad fa 95 be f8 78 06 3e 73 67 3d be
       -0.112977855 -0.29292813 0.13132083 -0.18496494
000140 9e 2f 58 be 6e 45 ad 3d da f9 3a 3e 10 6c 5a 3e
       -0.21111915 0.08460508 0.18259373 0.21330285
000150 29 62 89 3c b6 1c 0f 3e ea cb 72 3e 7c 18 c7 3c
       0.01677044 0.13975796 0.237106 0.024303667
000160 ac e1 39 3c 79 13 31 3e c3 6f 0e 3e 87 b7 8c 3d
       0.011345308 0.17292584 0.13909821 0.068709426
000170 da 89 98 3e 13 43 a4 3d 35 9c 97 3c f7 6d 85 3e
       0.29792672 0.08020606 0.018507103 0.2606046
000180 51 34 8f 3d 33 65 bd 3c 78 0f 66 3e 55 cd 62 3d
       0.069924004 0.023119545 0.22466838 0.0553716
000190 72 14 55 3e c8 12 d5 3d e8 80 3e bd 54 af 01 3e
       0.2080858 0.10403973 -0.046509653 0.12664539
0001a0 28 aa 0d 3e ca 17 f6 bd 24 0b 31 bd 4a 59 05 be
       0.1383444 -0.12016256 -0.043223515 -0.13022342
0001b0 24 db 73 3e c9 a4 35 3e 1c a1 c6 bd 6c f2 74 3e
       0.23814064 0.17738642 -0.09698698 0.23920602
0001c0 04 9f fc 3d 1e 04 a8 bc 70 6c 05 3e 73 51 c2 3d
       0.12335017 -0.020509776 0.13029647 0.094881915
0001d0 65 61 1d 3d 5f ae 2f 3e 5b 8b da 3d 54 a2 30 3d
       0.03842296 0.17156361 0.10671111 0.04312356
0001e0 48 9b bf 3d 27 5f 2c 3e de 09 35 3e cb af 68 3e
       0.093557894 0.16833173 0.17679545 0.2272331
0001f0 7b 35 02 3e 2a 5e 8e 3e 44 0c 9c 3d 06 8d dd bc
       0.12715714 0.27806216 0.07619527 -0.027044784
000200 c0 09 cc be 1c c5 0e 3e 93 39 44 3d 00 97 2d be
       -0.3985119 0.13942379 0.04790647 -0.16952133
000210 c0 cb c9 3d 5f 54 ad 3c 36 d5 11 be 48 7f 04 3e
       0.09853315 0.021158395 -0.1424149 0.12939179
000220 93 f2 93 3d b8 6f 98 bc 13 ab 98 3e f7 5f 92 3e
       0.07224002 -0.01860796 0.2981802 0.2858884
000230 a1 98 3d 3e 8b 76 9d 3d e4 3d cf 3d be 67 34 3e
       0.18515255 0.07688626 0.101192266 0.176177
000240 13 28 93 bd 4a 74 be bc 83 b1 80 bc c7 6e e1 bd
       -0.07185378 -0.02324881 -0.015709644 -0.11007457
000250 50 1b 1e be 9c f5 7b bd 2f f9 9a be b5 f3 8f be
       -0.15440106 -0.06151353 -0.30268237 -0.2811562
000260 d4 75 27 bd 12 1d b8 3d f6 cb a0 bd c5 c6 f7 bd
       -0.040883854 0.0898992 -0.078514025 -0.12098459
000270 1a e4 be 3c 9b ab d0 bd 63 01 aa bd 14 52 88 3c
       0.023302127 -0.10188981 -0.08301046 0.0166407
000280 f1 87 0f be 3a 76 6a bc a8 12 ae bd 57 db ff bd
       -0.14016701 -0.014310414 -0.08499652 -0.12493008
000290 85 87 a4 3c 35 76 ce bd b2 a2 32 bd 73 53 13 3e
       0.020084152 -0.1008114 -0.04361219 0.14387302
0002a0 f6 e0 58 be 2a 16 db bd 0f f0 07 3d f1 58 bc bc
       -0.21179566 -0.10697587 0.033187922 -0.02299163
0002b0 fe f7 31 3c 55 07 d0 bd 76 d7 1b be 98 8b 2d bc
       0.010862349 -0.101576485 -0.1521891 -0.010592364
0002c0 b6 83 38 3e 4e 85 ce bd 11 36 99 bd 71 62 a7 3d
       0.18018994 -0.100840196 -0.074810155 0.08173073
0002d0 f7 c6 3a be ba 1d 8c be f0 64 a9 be d4 11 b2 3d
       -0.18239962 -0.2736643 -0.33084822 0.08694807
0002e0 95 ec e4 bd d7 81 5a bd ab 2b 57 3d 91 e1 04 3b
       -0.11177937 -0.05334648 0.05253188 0.002027605
0002f0 45 08 0a 3e a1 a8 bf be 20 62 72 bd da 4a af 39
       0.13479717 -0.3743334 -0.05917561 0.0003343437
000300 4a 86 73 bd e4 24 ee 3d 2a 8b c2 3d f1 39 50 bd
       -0.05945424 0.1162813 0.094992 -0.050836507
000310 41 63 e6 3d 0f 5f 00 3e 38 ea fc bd 5c 50 d7 bc
       0.112494 0.12536262 -0.12349361 -0.026283436
000320 74 0a c4 3d 47 6e 01 be c9 df 8e bc f7 fa 5c 3e
       0.09572306 -0.12639724 -0.017440693 0.2158011
000330 c4 7e 9f be 80 a2 a2 bd 82 f0 63 3e 1f ef 16 3e
       -0.31151402 -0.07941151 0.22259715 0.14739655
000340 64 e5 3a 3e f3 82 79 3e 3f 36 43 3e e7 14 27 3e
       0.18251568 0.2436636 0.19063662 0.16316567
000350 2d 22 0b be 8f 8b 25 3e d1 30 90 3d d0 b7 f4 3c
       -0.13587256 0.16166519 0.07040561 0.029872805
000360 74 f0 86 be 55 ae 1f be 3f b8 4d be 8f 55 5b 3d
       -0.26355326 -0.15593846 -0.20089816 0.053548392
000370 91 aa 8a 3c 51 75 70 3d a7 46 85 be 23 da 91 bd
       0.016927036 0.05870563 -0.26030466 -0.071216844
000380 1b f5 a9 3d 22 b0 97 3e 56 ff 1c 3c e8 97 0d 3c
       0.08298703 0.29626566 0.009582361 0.008642174
000390 c4 ec 8d bd fe 22 d2 3d d8 73 bd 3d bc be 90 3e
       -0.06929925 0.102605805 0.09250611 0.2827052
0003a0 ec 5e 57 3e 6b f9 98 3e 05 40 52 3e fe 2b 0c 3e
       0.21032304 0.2987779 0.20532234 0.13688657
0003b0 40 bc 01 3e 6a 18 29 bd 84 37 38 3e 64 76 3f 3d
       0.12669468 -0.04128305 0.17989928 0.046743765
0003c0 c9 b4 7d 3e b3 fb 96 3e a7 64 46 3e b6 9f db 3d
       0.24775995 0.29488906 0.19374333 0.10723822
0003d0 62 b1 1c 3e 30 b3 0d 3e f0 7a 88 3d ad ea 8d 3c
       0.15302041 0.13837886 0.066640735 0.017323816
0003e0 89 1d af 3d 81 db b0 bd cc d4 0d be 90 b9 54 be
       0.08550555 -0.08635617 -0.13850707 -0.20773911
0003f0 d8 a3 18 3e 9b 47 85 3d 41 38 9f 3d 1e 3e 28 3e
       0.14906251 0.06507798 0.077744015 0.16429946

model.3.bias f4 [32]
000000 18 51 27 bd eb ac 86 3d 40 55 2d 3d 5b 1a dc bc
       -0.04084882 0.0657595 0.04231763 -0.026868036
000010 73 31 4d bd 33 d4 70 be 83 fc 3c 3d 9f cb d4 bd
       -0.050095987 -0.23518448 0.04613925 -0.103904
000020 69 b5 9d be b0 ae 1f be 93 d0 3d bd d7 d3 51 bd
       -0.30802467 -0.15593982 -0.04634149 -0.051227417
000030 7e d4 62 be ae 54 7f 3d 4b b8 02 be c5 ab 4e be
       -0.22151372 0.062336616 -0.12765615 -0.20182712
000040 a7 cb a5 bd d1 d5 1b be 93 1c 4c 3d 57 df 43 bd
       -0.08095484 -0.15218283 0.049831938 -0.047820415
000050 ef 38 bc 3e 96 db 52 be 56 f2 82 bc be e5 f2 3d
       0.36762187 -0.20591578 -0.015984695 0.11860226
000060 ac 75 1c be be 16 ac 3e 2e e7 20 be 98 e8 91 bd
       -0.15279263 0.336111 -0.15713188 -0.07124442
000070 55 b8 c0 3b 54 68 fe bc d2 33 9f 3e 35 4a 63 be
       0.005881349 -0.031055607 0.31094223 -0.22196276

model.7.weight f4 [1, 32]
000000 03 df e3 be dc 15 e6 be e3 c7 6d be 55 75 28 bf
       -0.44506082 -0.44938552 -0.23220782 -0.65804034
000010 3f d8 6c 3e ec b7 79 3e d9 78 30 3f 58 8c 17 bf
       0.23129366 0.24386567 0.689344 -0.5919852
000020 c5 48 3e 3e fa a2 95 3e 05 7f dc 3e 88 95 9a 3e
       0.18582447 0.29225904 0.43065658 0.30192208
000030 5e 27 f0 3d fc 34 6a be 15 0f 6f bf 62 db 10 3e
       0.11726259 -0.22871774 -0.9338239 0.14146188
000040 9a 3f 19 bf 95 63 05 3e 57 3d 85 be af dd 02 bf
       -0.59862673 0.13026269 -0.2602336 -0.5111951
000050 f0 fb 7d 3f 32 2c b8 3e f8 ff 9c 3e ff 73 be be
       0.9921255 0.35971218 0.3066404 -0.37197873
000060 9f 5b b9 3e e7 9b af 3f ac c3 6a 3e 94 ce 0e 3e
       0.36202714 1.3719453 0.22926205 0.13945991
000070 13 7b 32 bf 93 88 bf be 55 27 3d 3f b7 5d 29 3e
       -0.69719046 -0.37408885 0.7388814 0.16539656
