abgabe_3.pt (torch, 24279 bytes, 5 tensors)

model.0.weight f4 [16, 6, 3, 3]
00000000: bf5c d03c cd97 9abd ff61 28be 9630 513e
00000010: 20f1 dd3d 2cdf a9be 6490 a53d 4f0d a2bd
00000020: 5340 423d 5bea 653e 75cc 82bc e8c4 c3bd
00000030: 4374 943d 65c3 3dbe 6b0b b63d 3518 c43d
00000040: 0439 103e 19b8 a1be 25cb 2e3e 07d8 273d
00000050: af76 58be 4441 a2bd 239f b73d 8e96 2cbe
00000060: 2b84 5e3e 31c4 a43d ccf7 38be 588f 343d
00000070: 519e 5abe e441 aabe c35a ed3d aa5d d2bd
00000080: d301 c1be 772d 063e e5b6 813e 8d92 213e
00000090: 6ce7 9e3d 3cb7 90bb 60b0 643d ef99 1f3e
000000a0: 9bbe fe3b 7494 e6bd f258 b1bb f9de 7a3c
000000b0: 1636 a8bd 6bab 8bbb db37 97bd e5c1 4f3c
000000c0: 0424 94be 15c1 a3bd 2f68 66be 4d80 c9bd
000000d0: d52b dcbd 695a c33d 910a eebd 602a a7be
000000e0: 8140 15bd 6a81 62bc 8123 77be 4a03 c23a
000000f0: b0f5 ea3c 650f 38be ec7a 26be b8d8 023e
00000100: cfa2 073e 9f3f f33d 9af5 78bb 8576 d7be
00000110: badd df3c 759e 4abd 9862 05bd f360 403c
00000120: eb0b dc3d abcc d03c 9635 8d3d c62f ee3d
00000130: bf87 29bf 8052 7d3d 8781 c13d c768 d53d
00000140: 90b0 2cbd 8339 393d a6c6 4b3e d3a3 ec3c
00000150: 1668 223d e1c8 20be fc38 583d cad2 403c
00000160: de02 f2bc 2257 32be c7c4 7c3b 00b4 a33d
00000170: 01d9 3abd 5b66 77bd dbbb f1be 5497 b6bd
00000180: ffa0 393c 4a86 5fbd 2409 b83c 2134 d33d
00000190: d73f 7d3e 3aba ae3d 52da 693d 32cf 4abf
000001a0: 5a7f 7c3d a7c4 67bd 47c4 673e 099d 4d3b
000001b0: 71e8 0bbc 674b dabc e394 a2bd 0b0b c63d
000001c0: 8a79 563e bf64 0e3e 6f87 2a3e 1c85 00bc
000001d0: aa4e 8bbd 3ebf 8fbd 0266 94bd 2306 273d
000001e0: dcaa 423d 4e98 d7bd 21d6 bcbd eece 83bc
000001f0: 5d44 593e fb83 efbd 6587 603e 7a66 b4bd
00000200: 9ad6 34bd 3586 7d3e 7b20 29bd 5b28 acbc
00000210: 739c 833e 278b d9bc 9b66 2ebd 1b71 383e
00000220: 2d1f 7cbe 7287 30be 3f60 773e a97e edbd
00000230: 5cac 743d a755 f03d 9f08 d9bd c341 793d
00000240: c5df 053e 96a3 58be 5613 393d dcf7 95bc
00000250: ec3f 54be a03b 023e 1221 983d 937f 94bb
00000260: c700 82bd 0728 04bd 4d60 afbd 841e e7bd
00000270: 28a9 92bd d30e e1bd f8ae 1f3e b20b e23d
00000280: 2ebe a1be bec8 683e b79c 21be 7275 b7bd
00000290: dc7c 43be c188 943d db21 403c 6ca7 92bc
000002a0: f647 003e 6e79 8cbc 4bb5 d93c eeef 2cbe
000002b0: de0e f5bc 1bfd 3b3d 3a6f 233d e307 85be
000002c0: d249 06be 5d5a d43d d47d c03d 589f 103b
000002d0: 9d8d 14bd 260b 69bc 1bc9 c43e d729 043e
000002e0: 6a12 c7bd 1ca9 bf3e bc14 4abd 7db7 7b3c
000002f0: d9a6 603e 1b77 12be 180e 84be 328c b9bd
00000300: 5609 20bd 517e 51be 2fa8 0e3d 4410 eb3d
00000310: a34b 09be 6967 843e 3cec fdbc 75b7 b43d
00000320: 6884 463e d2bd 353d 3bfb 243c e56e 4f3e
00000330: d315 26be 2811 0ebe 2c2d 8b3b 3e3f d2bd
00000340: 8688 51be d363 183e 042e 63bd 0add 953d
00000350: 4927 b13d ef2b 47be 0e15 94be 83f5 8e3d
00000360: 86a3 dabc 7808 343d 3382 e6bd e36e 55be
00000370: 94ec 63be 5cc9 e13c 794f 0ebe 034d 6a3e
00000380: b0f6 833e 48dc 94bb 4d9e 9f3d 43de 613d
00000390: 25f2 fe3d be6b 2d3e 73b6 ae3d d913 cc3d
000003a0: 26d6 84be 0dd4 d5be a309 33bd 3ac6 db3d
000003b0: a148 2e3d 8620 69bd 2e42 f63d 6fe6 b1bd
000003c0: 7c71 a138 d9a3 073c e447 81be 6ba7 2abe
000003d0: 3705 ce3c f5bb b3bd 4a95 7cbe 4159 d4bc
000003e0: 0198 eb3d cca5 d2bd 4319 55ba 165c 703e
000003f0: 220b 0c3e 69e7 23bc 00c9 d23d 51b0 393e
0.02543485 -0.07548485 -0.16443633 0.2042869 0.108370066 -0.3317808 0.08084181 -0.07912695
0.047424626 0.22452681 -0.015966633 -0.09559041 0.07248738 -0.18531568 0.088888966 0.095749296
0.1408425 -0.31585768 0.17069681 0.040977504 -0.21139024 -0.07922605 0.089659 -0.16854307
0.21730106 0.08045233 -0.18063277 0.044082016 -0.21349455 -0.33253396 0.11589577 -0.10271771
-0.37696704 0.13103281 0.2533485 0.15778561 0.07758984 -0.0044163745 0.055832267 0.15586065
0.007774187 -0.11258784 -0.0054122144 0.01531195 -0.08213441 -0.004262378 -0.073837005 0.012680505
-0.28933728 -0.07995812 -0.2250068 -0.098389246 -0.10750548 0.09538729 -0.11623109 -0.32649517
-0.03643847 -0.0138248 -0.24134637 0.0014802006 0.028681606 -0.17974623 -0.16257828 0.12777984
0.132457 0.11877369 -0.0037988187 -0.4208261 0.027327407 -0.049467523 -0.03256473 0.0117418645
0.10744461 0.025488218 0.06894986 0.11630206 -0.6622276 0.061846256 0.094485335 0.10420375
-0.04216057 0.045220863 0.19899997 0.028886711 0.039650045 -0.15701629 0.05278872 0.011769006
-0.029542383 -0.17416051 0.0038569437 0.07993317 -0.045617107 -0.06040035 -0.47213635 -0.08915582
0.011329888 -0.054571427 0.022465296 0.10312677 0.24731384 0.08531614 0.057092972 -0.79222405
0.06164489 -0.056584027 0.22633468 0.0031374118 -0.008539305 -0.026647283 -0.07938554 0.09670075
0.20944801 0.13905619 0.16653226 -0.007844236 -0.06802113 -0.070188984 -0.07246019 0.040777337
0.047526225 -0.10527097 -0.09220529 -0.016089883 0.21217485 -0.11695095 0.21926649 -0.08808608
-0.044149972 0.24758227 -0.04129074 -0.021015337 0.257053 -0.02655561 -0.04257832 0.18011896
-0.24621268 -0.17239168 0.24157809 -0.11596424 0.059734687 0.11735087 -0.105973475 0.06085373
0.13073643 -0.21156153 0.045184456 -0.018306665 -0.2072751 0.12718058 0.07428183 -0.0045318096
-0.063478045 -0.032264736 -0.0856329 -0.11285117 -0.0716117 -0.109891556 0.15594089 0.11037387
-0.31590408 0.22732827 -0.15782438 -0.08957948 -0.19090599 0.07252646 0.011726822 -0.017902099
0.12527451 -0.017147746 0.026575705 -0.16888401 -0.029914316 0.045895677 0.039900996 -0.2598258
-0.13114098 0.10368798 0.09399 0.0022067633 -0.036267865 -0.014223849 0.3843468 0.12906586
-0.09720309 0.37433708 -0.04933618 0.015363571 0.21938647 -0.14303248 -0.25792003 -0.09059943
-0.039071403 -0.20458342 0.03482836 0.11477712 -0.1340776 0.25860146 -0.030996434 0.08824054
0.19386446 0.04437048 0.010069664 0.20257147 -0.16219263 -0.13873732 0.0042473283 -0.10265969
-0.20462236 0.1488183 -0.055463806 0.073175505 0.08650071 -0.19450353 -0.28922313 0.069804214
-0.026689302 0.04395339 -0.11255302 -0.20843081 -0.22258216 0.027561836 -0.13897504 0.2288094
0.25774145 -0.004542861 0.07793865 0.055143606 0.12448529 0.16935632 0.08530893 0.09964723
-0.25944632 -0.41763344 -0.043710362 0.10731168 0.042549733 -0.056915782 0.120243415 -0.0868653
7.698216e-05 0.00827881 -0.2525016 -0.16665427 0.025148971 -0.08776084 -0.24666324 -0.025921466
0.11503602 -0.102855295 -0.00081290695 0.23472628 0.13676122 -0.010003903 0.10292244 0.18133666

model.0.bias f4 [16]
00000000: 746a 103d 407d 48bd a82b 463e 4178 65bd
00000010: dcea 6ebe 3115 cdbd e010 4cbe 543f 193c
00000020: 9d3c 5bbe 90d6 893d c67a 96bc 273d 58be
00000030: 58f3 4abe b213 003e bcae b23b 0068 35be
0.03525777 -0.048947573 0.19352591 -0.056022886 -0.23331779 -0.100138076 -0.19928312 0.0093534775
-0.21409841 0.06730378 -0.01836909 -0.21117078 -0.19819391 0.12507513 0.005452959 -0.17715454

model.3.weight f4 [32, 16, 3, 3]
00000000: 73c7 013e fbd8 573d b84f eb3d 55cb c73d
00000010: c7ff 443c 1755 533d a2a2 183e 1652 bb3d
00000020: c192 c43d c210 c8bc b014 8abd 7fdc fa3c
00000030: 9cf9 25be 088a 50be 86c6 0bbe 8a05 e3bd
00000040: de08 7bbe 27ac 3dbe 18ab 1b3d 8763 003e
00000050: ca1c f03c c5af 113e c730 1b3e a9bd 183e
00000060: 9da2 a5bb 6edd ed3d df85 613d 72d9 b13d
00000070: 1ded e93d 7606 b53d a550 c63d c6ac da3d
00000080: 101a 763d 0b09 2c3e e73b f33d 1ba5 ff3d
00000090: 0656 723d c5cc 733d 6c21 ef3d ac50 403d
000000a0: ff2f e33d 5aa4 233e 6de6 2f3e ef6c 243e
000000b0: 0209 553e 03e5 293e b946 143e 4273 fc3c
000000c0: 34f3 963d 727b 2e3e f847 303d 89f4 083e
000000d0: 918b 043e e87d fbbc 040b 0b3e ba8b eb3c
000000e0: ca67 833d 8d74 4f3e b182 2a3d 2ea7 743d
000000f0: 31e8 b03d d6f3 293e 2510 453e ffe8 59bd
00000100: 3a63 2abe a846 a0bd 7893 dd3a 98b0 27bb
00000110: 4d11 2cbd 4b56 453d 4cb8 02bd c492 e438
00000120: bb38 c2bc aa6a 0cbd 7afc 8d3c 551b 3e3e
00000130: 1d75 dd3d f636 ed3d 646b 4e3e 6869 d93d
00000140: f526 b33d f803 413d 4d94 563c 2a5c 313d
00000150: 2117 013e 93f1 ff3d 4074 063e 5dfb e93d
00000160: 2dd8 b13d d15a 6a3b 26c0 89bd 6cc2 1abd
00000170: a92b 07bd 1b4e a5bd 1ca8 c6bd e712 b1bd
00000180: 15fb a8bd 1211 1ebe 0167 a4bd 6c8a 3d3e
00000190: 17aa 2d3e 6455 743e 7e1a f43d 521a f93d
000001a0: ece4 693e bec6 0d3d fd7c a43d 8150 073e
000001b0: 3c67 953c 09e5 98bd 327a 0fbe 634f 4dbe
000001c0: f7c8 3bbe a4b1 31be c887 8ebe c5f3 3fbe
000001d0: 6493 3dbe d66c 33bc 630b 853d 70e3 debb
000001e0: 2acf 3a3e 4867 9e3c 1366 033d f449 333d
000001f0: a538 433d 8d46 273e a66e eebd 86ba 13be
00000200: c68c 1abe 38a5 babc 1a74 e8bd f046 c73c
00000210: 1819 ef3b e5c7 c9bd 02b9 853d 6613 e93d
00000220: 00da ec3d d0cc 463e f173 b23d e628 763d
00000230: 2db9 cf3a 6323 4f3d 24ae 253e 4e2d 153e
00000240: cfda 083e 03af e43d 5b33 423d 5114 083e
00000250: dfb5 663d 38c0 383d 78c2 1a3e 9acf 803d
00000260: 2c0a 683d 776e 84bd 4ab7 19be 0228 fabd
00000270: db1a 06be 7347 12be 1052 f4bd 50f3 53be
00000280: 4108 4dbe 4135 4abe e496 74bc 70f9 d23d
00000290: 056e 103e cd0a 0d3e eacb 123e 0f0c 073e
000002a0: a830 abbc 2d1d 843c 9989 6e3d df94 373e
000002b0: 1593 193d e88c 553d b50b c73d 2452 c03d
000002c0: 4941 3c3d 53cb 033e 34a3 0c3e 06df 873d
000002d0: 77d5 06bd cdc7 dc3c 2bb7 d73d 129f 853d
000002e0: bef4 9e3d 8871 313e dd75 2d3e 42cd f83d
000002f0: a23b 773e 387f 2a3e 4268 8e3d 4f42 943c
00000300: be41 203e 6b99 e43d 2dd6 f13d b90b 003e
00000310: aa2b af3c 8765 df3d e54b fe3d e2dd f53d
00000320: 38ec 183e a584 623e 9398 213e 4b54 983d
00000330: 3ce5 cc3d bfd5 0d3e 8e8f e33d 01d2 cfbc
00000340: c350 a3bd 8889 89bc 7f9c 60bc d904 0dbd
00000350: c460 8c3d b2f8 cb3c ece5 00be 8cb3 bcbd
00000360: b956 773c 41cc b93d e866 733c 7091 1c3e
00000370: d9c7 303e 75b5 553e 7086 f23d feab f43d
00000380: 8a9e 063e 3d20 a13d 4904 873c 0dd2 173e
00000390: 8064 083d 1a2d d33d 5618 aa3d 28d0 0e3d
000003a0: 92ca cc3d 612f 273d a600 4c3d 44f9 acbd
000003b0: 6f4f 62bd 9b06 373b 65cf ffbd fa9a 323d
000003c0: 3e66 03be aa7d dabd b2be 3cbe 2a57 263e
000003d0: 0d8a ce3d f5ea 473e 1d44 133e 6654 193e
000003e0: 851f 693e 68c5 b53a 7402 063e 151e 293e
000003f0: 9ad1 d53c f219 58bc ad52 97bc 4bec 57be
0.1267374 0.052697163 0.114898145 0.097555794 0.012023873 0.05159482 0.1490579 0.09146516
0.095983036 -0.024422053 -0.06742227 0.030622719 -0.162085 -0.20365155 -0.1364995 -0.11085041
-0.24515101 -0.18522702 0.038004965 0.12537967 0.029310603 0.14227207 0.15155326 0.149161
-0.0050547854 0.116145 0.05505931 0.086840525 0.11422179 0.08839123 0.096833505 0.10677485
0.06008345 0.16800325 0.1187666 0.12482663 0.05916407 0.059521455 0.116762966 0.046951935
0.11093139 0.15980664 0.17177744 0.1605718 0.20804217 0.16591267 0.14480104 0.030816678
0.07370606 0.17039278 0.043037385 0.13374533 0.12943865 -0.030699685 0.13578421 0.02875315
0.064162806 0.20259304 0.041628543 0.059729747 0.08638037 0.16596922 0.1924444 -0.053200718
-0.16639414 -0.078259766 0.0016904911 -0.0025587436 -0.042008687 0.048178 -0.03191404 0.000108992244
-0.023708692 -0.03428141 0.017332304 0.18565114 0.10813353 0.115827486 0.20158154 0.10615808
0.08747665 0.047122926 0.013096881 0.043300785 0.12606479 0.124972485 0.13130283 0.11424897
0.086838104 0.0035759697 -0.067261025 -0.03778307 -0.033000622 -0.08071538 -0.09700033 -0.086461835
-0.08251015 -0.154362 -0.08027459 0.18509835 0.16959415 0.23860699 0.119191155 0.12163223
0.22841233 0.034613363 0.08031652 0.13214304 0.018237703 -0.0746556 -0.14011458 -0.20049815
-0.18338381 -0.17352921 -0.27837968 -0.18745334 -0.18513256 -0.0109512415 0.064963125 -0.006802015
0.1824309 0.019336358 0.032079767 0.0437717 0.047661442 0.16335507 -0.11642198 -0.14426622
-0.15092763 -0.02278386 -0.113502696 0.024325818 0.0072966926 -0.0985258 0.06529428 0.11380653
0.11565018 0.19414067 0.0871352 0.060097598 0.0015848033 0.050570857 0.1617971 0.14568064
0.13364719 0.11166193 0.047412258 0.13289 0.05632579 0.04510519 0.15113246 0.06289597
0.056650326 -0.06466382 -0.15011325 -0.12214662 -0.13096182 -0.14285068 -0.11929715 -0.20698285
-0.2002268 -0.19746877 -0.014928553 0.10301483 0.14104469 0.13773651 0.143356 0.13188194
-0.020897225 0.016127193 0.058236692 0.17927884 0.037493784 0.05213633 0.0971903 0.09390667
0.0459607 0.12870531 0.13734132 0.06634335 -0.03291842 0.026950741 0.105329834 0.06524481
0.077615246 0.17328465 0.16939493 0.12148525 0.24143842 0.16650093 0.06953479 0.018098025
0.15650079 0.11162075 0.11808429 0.12504472 0.021383125 0.10908037 0.124168195 0.120052114
0.1493386 0.22120912 0.15780859 0.074379526 0.100046605 0.13851069 0.11111365 -0.025368692
-0.079743885 -0.016789213 -0.013709187 -0.03442845 0.06854394 0.02489886 -0.12587708 -0.09213933
0.01509636 0.090721615 0.014856078 0.15289855 0.17263736 0.20870002 0.11842048 0.119468674
0.13146415 0.07867477 0.016481536 0.14826222 0.03329897 0.10311337 0.08305423 0.034866482
0.09999575 0.04081667 0.049805306 -0.08445981 -0.055251535 0.002792752 -0.12490729 0.04360483
-0.12831971 -0.106685 -0.1843212 0.16244188 0.10084925 0.19523223 0.14381452 0.14973602
0.2276593 0.0013868036 0.13086873 0.16515382 0.026100922 -0.01318978 -0.01847204 -0.21086232

model.3.bias f4 [32]
00000000: 3443 963d db47 273d 379f 833e ced5 8abc
00000010: c5a6 78bb e7e6 8d3d d7c7 933c 9e28 793d
00000020: ce31 203e 8e4e a9bc 449e 533d 6920 c03c
00000030: 9ea1 5fbd fd84 513a ab5c a43d 61a2 4b3d
00000040: f2dc 9f3b 9c6b 5fbd 5ab4 bc3d 9f94 023e
00000050: ed45 3d3d 8120 ae3c 9571 e63d 1876 b5bd
00000060: 54f7 a53c 9bd7 cb3d 3c2d 19bd d869 a43d
00000070: f3f0 f93c ab90 0e3d 6e49 af3d a7aa 283d
0.07337037 0.04084001 0.2570741 -0.016947653 -0.00379412 0.06928807 0.018039627 0.06082975
0.15643999 -0.02066734 0.051664606 0.023452954 -0.05459749 0.0007992534 0.080254875 0.049715403
0.0048786337 -0.054545984 0.09214087 0.12752007 0.046209265 0.021255733 0.11252133 -0.08860415
0.020259537 0.09953233 -0.037396654 0.080280006 0.030510401 0.034805935 0.085589275 0.04117837

model.7.weight f4 [1, 32]
00000000: 251a 40be bc9c a1be d532 ab3f 8c5a 713e
00000010: 0e30 60be 8334 a8be b08b 93be 1447 b0be
00000020: fe24 69be 6e90 8abe 357b 87be 0599 2abe
00000030: d1e2 673e fd6c 993e 54e1 a33e 5008 36be
00000040: 64c5 6bbe 5aac 933e 5ca7 a2be c4eb a2be
00000050: 6b8f 603e a251 9cbe 1931 abbe e395 6c3e
00000060: 75fc 8b3e 80d2 39be 5c6e 593e 95c7 71be
00000070: bc63 aa3e f4db acbe cb1c 3dbe 3aa7 c8be
-0.18759973 -0.3156489 1.3374888 0.23569697 -0.21893331 -0.32852563 -0.2881751 -0.34429228
-0.22768018 -0.27063316 -0.26461187 -0.16659935 0.22645117 0.29965964 0.3200785 -0.17776608
-0.23024517 0.2884243 -0.3176831 -0.318205 0.2192971 -0.3053103 -0.33435896 0.23104052
0.27341047 -0.18146706 0.21233505 -0.23611291 0.33279216 -0.3376156 -0.18468015 -0.39190084
